weights/CNN_best_weights.pt (torch, 6007 bytes, 3 tensors)

conv1.weight f4 [32, 6, 4]
000000 17 97 34 3d bd 00 41 3d b4 ce 70 3d 4a ca 16 3d
       0.044089403 0.047119845 0.058790877 0.03681401
000010 ff 11 e5 bc e6 3a 8b 3d c0 cb a7 bd a9 31 54 3d
       -0.027962683 0.06798343 -0.08193159 0.051805172
000020 ab 7d f2 3d 71 3f 29 be 40 89 15 3e 65 51 9f bd
       0.118403755 -0.16528107 0.14603138 -0.07779197
000030 53 f4 38 bd 17 13 94 bd f8 64 21 be 3d f1 34 be
       -0.04515488 -0.072302036 -0.15761173 -0.1767015
000040 90 f6 d2 3d b6 44 83 3c 18 d2 e7 bd 1c 35 af 38
       0.10300934 0.016023975 -0.11319369 8.354543e-05
000050 68 00 a8 bc 2c 5b 94 bb 72 6b fd bc a0 40 58 3c
       -0.020508006 -0.00452747 -0.030935023 0.013199002
000060 d9 dc f1 be e2 de 99 bc 4e eb 9e bd 5d 7c c9 be
       -0.47238806 -0.018783037 -0.077597246 -0.39352694
000070 28 8c 18 be 65 1c 14 be f4 42 b7 3e 1a 1d 53 bd
       -0.14897215 -0.14463957 0.3579327 -0.051541425
000080 b6 dd 7e bd ee 30 54 bd 08 03 19 bd 49 4e b9 3c
       -0.06222316 -0.051804475 -0.037356406 0.022620337
000090 f7 86 c4 be 8f 61 0b be 19 1d e1 bd 73 df ae be
       -0.3838422 -0.13611434 -0.10991878 -0.34154853
0000a0 ab 6b 9a bc 8b de d9 bd 78 68 62 3d da c0 9b 3c
       -0.018850168 -0.1063815 0.05527541 0.019012857
0000b0 ff ee 84 3d 67 b3 15 3d 8e ea 12 3d 70 cd 76 b8
       0.064908974 0.036548045 0.03586822 -5.88423e-05
0000c0 ae e5 85 bc f9 ff 4d 3b 98 16 0e bd a4 6f 0b 3d
       -0.016344871 0.003143309 -0.034689516 0.034042016
0000d0 79 a3 a3 bd cb b2 8e 3d ac db ac bc 19 b3 d4 3c
       -0.07990164 0.06967696 -0.021100841 0.025964307
0000e0 0e 6e e1 3a d7 b0 c2 bd 18 eb 61 3d 5c d5 13 bd
       0.0017198937 -0.09506386 0.055155843 -0.036092147
0000f0 3a c4 71 bd 24 1e c0 bd 1e 85 15 bd 2c e2 b3 bd
       -0.059025027 -0.09380749 -0.036503904 -0.08783373
000100 a2 e3 80 3c 5b d0 a4 bd ea 14 01 3e f8 45 c1 bd
       0.015733544 -0.08047553 0.12605634 -0.094371736
000110 ac b4 9e 3b 0c 46 9a 3c 92 8f 14 3c 91 f8 46 3c
       0.004843315 0.01883223 0.009067433 0.012144224
000120 95 ef 79 bd 1f 23 b0 bd 9c 55 a6 bc 64 eb 28 be
       -0.0610195 -0.08600449 -0.020304494 -0.16496044
000130 94 d2 bc bd d9 b1 63 bd ad a6 f8 3c b8 dd 4e 3d
       -0.09219852 -0.05558953 0.030352915 0.050504416
000140 58 bb c2 3d 08 43 24 bd cf f8 33 3e 5d a9 7c 3a
       0.09508389 -0.04010299 0.17575382 0.0009638274
000150 e8 40 c6 bd 18 09 25 be ce 3a a3 bd 6a 7b 48 be
       -0.09680349 -0.1611675 -0.079702005 -0.19578329
000160 2f df 2f 3c a5 c3 61 3d 89 8b 5c 3d da 19 35 bd
       0.010734363 0.05511822 0.05384401 -0.044214107
000170 02 b4 3c 3b e6 02 7a 3c 18 66 81 3c 4b 39 ea 3c
       0.0028793816 0.01525948 0.015795752 0.028591773
000180 93 f3 83 3d ec 29 af 3d ce bc 84 3c 13 26 ac 3d
       0.064429425 0.08552918 0.01620331 0.084056996
000190 61 42 58 be d2 ee f3 3d 60 ad fd 3d de 88 9f bd
       -0.21119072 0.11910786 0.12386584 -0.07789777
0001a0 ea 86 22 3e 68 bd 84 bd b7 cc 6b bc a8 2d 86 3d
       0.15871778 -0.06481439 -0.01439207 0.06551677
0001b0 82 f2 1d be c2 13 4e be 80 fa 08 be ef a9 00 be
       -0.1542454 -0.20124725 -0.13376808 -0.12564825
0001c0 97 7b 98 3d cf 4c b2 bd 57 b3 1a bd a6 67 5e 3c
       0.07445448 -0.08706056 -0.037768688 0.013574516
0001d0 87 5d a6 bd 3f 9b de bc 58 bb c6 3b 9e f5 bc 3c
       -0.08123308 -0.027173636 0.0060648136 0.023066338
0001e0 be 41 ce bc e5 7c 3f bc 61 b6 98 bc 0a af 6c 3a
       -0.025177833 -0.011687492 -0.018641653 0.00090287684
0001f0 39 71 19 bc 71 24 b5 bc 7a 8b f6 ba 1f 8b d0 bd
       -0.009365373 -0.022112103 -0.0018809878 -0.10182785
000200 ea b0 fb 3d 75 79 80 bd ad 85 cb 3d 6b 3f f3 3c
       0.12289603 -0.06273166 0.09937606 0.029693326
000210 b9 7b 93 bd 1c dc ba bc f4 e1 8f bd 9f 18 65 bd
       -0.072013326 -0.022810034 -0.07025519 -0.055931684
000220 5c 3c 3b bd c9 9a ec bd d8 89 1e 3e d3 c5 51 3d
       -0.04571186 -0.115529604 0.1548227 0.05121405
000230 53 2f cb ba 52 92 0a 3c d9 46 ba 3b e9 3e 0e 3b
       -0.0015501775 0.008457737 0.005684715 0.0021704978
000240 e3 07 45 bf d8 73 17 3f e3 16 5f bf 57 51 16 3f
       -0.7696516 0.5916114 -0.871443 0.58717865
000250 75 1b 9b 3d 0f 3a 82 bd 3b ce 24 bc 8e 06 cc 3d
       0.075735964 -0.0635873 -0.010058935 0.09962188
000260 df d0 f8 bd f2 2d 58 3d 2a 0d 68 3d fe 9a 88 3d
       -0.12149214 0.052778192 0.05665318 0.066701874
000270 1a 90 f9 be 82 2b ed be dc 68 14 bf bf 79 d2 be
       -0.48742753 -0.46322256 -0.579725 -0.4110851
000280 ca 99 3e 3d e1 a9 c6 3d 60 31 8c bd f5 1b 06 be
       0.046533383 0.097003706 -0.06845355 -0.13096602
000290 a3 31 72 3c da 9c 59 3d 31 99 98 3d 13 51 1d bd
       0.014782342 0.0531281 0.07451094 -0.038407397
0002a0 f1 f1 22 3c 91 6f 0b 3c 80 d3 ad 3c 02 5d 31 3c
       0.009945379 0.008510486 0.021219015 0.010825397
0002b0 2e 33 95 3d 05 3c 3e bd e3 f6 c0 bd a6 3f 9c bc
       0.072851524 -0.046443958 -0.0942209 -0.019073319
0002c0 44 68 c3 bd 17 02 86 3d 01 d6 4e 3e f3 2d a3 bb
       -0.095413715 0.06543367 0.20198824 -0.004979843
0002d0 44 66 e4 3d 47 b2 f0 3a 6c e7 30 bd 73 21 28 bd
       0.11152318 0.0018363678 -0.04318945 -0.041047525
0002e0 80 2a 39 3a fb 95 45 3c 5f bf d2 b9 f1 50 6a bd
       0.0007063523 0.012059684 -0.00040196904 -0.057206098
0002f0 1b 6a 97 be 32 fd 20 be be f0 f6 3e 0d 33 2f be
       -0.2957314 -0.15721586 0.48230547 -0.17109318
000300 55 7f 81 bd a9 15 92 bd 23 dd 80 bd cb 19 e7 bc
       -0.06323115 -0.071330376 -0.062921785 -0.028210541
000310 72 c5 78 3e bc 1f 20 3e 4d b3 66 3d c3 3d a4 bd
       0.2429407 0.15637106 0.05632334 -0.080195926
000320 6c a8 14 3d 5c 86 d4 3c e8 29 bc 3d 18 50 33 bd
       0.036293432 0.025942974 0.091876805 -0.043777555
000330 64 07 e3 3c 81 05 ef 3c 9a 40 d5 3b 44 86 74 3d
       0.027713485 0.02917743 0.0065079452 0.05969836
000340 65 a8 02 be 91 b8 b8 bd ed 29 4c bd fa 15 d4 bd
       -0.1275955 -0.09019578 -0.04984467 -0.10355754
000350 58 3b 10 3f 35 ff 0c 3f e3 48 b1 be c4 74 c0 3c
       0.5634055 0.55076915 -0.3462592 0.023493178
000360 7a 8f 49 3d ec c9 a9 bd 99 80 74 3d d7 2d bc 3c
       0.049209096 -0.08290467 0.059692953 0.022971077
000370 bc ca 3d bd 64 60 eb 3d f2 63 d9 bd cc 25 de bc
       -0.04633592 0.114929944 -0.10614766 -0.027117632
000380 ac fc c7 bc 68 5e d4 3c 7e 62 fb 3c 70 55 18 3a
       -0.024412476 0.025923923 0.030686613 0.0005811071
000390 e4 ab ae bd ed 5c e7 bd 61 fa ad bd b1 be 41 bd
       -0.08528879 -0.11297021 -0.084950216 -0.047300998
0003a0 09 90 32 bb 91 f2 40 3d bf 37 98 ba 73 a9 ba bc
       -0.0027246496 0.04710633 -0.0011613293 -0.022785878
0003b0 b5 66 e3 bb 4a 09 d8 bb ef 6a 4b 3c 5a c9 2c 3d
       -0.006939734 -0.006592904 0.012415632 0.04218421
0003c0 85 62 13 be 2f 1d 5e be 05 ae 8a be a9 af a5 be
       -0.14393051 -0.2169082 -0.2708589 -0.3236058
0003d0 19 a5 2d 3f 10 79 b9 3d 20 f1 d3 be d3 1b 24 bf
       0.67830044 0.09056294 -0.413949 -0.64104956
0003e0 d0 0b 6c 3e 51 fd ff 3e 78 3f 53 3f a6 e3 45 3f
       0.23051381 0.49997953 0.8251872 0.7730049
0003f0 ca df 4b bf ca ee 5d bf b5 0e 88 bf ef 1b bc bf
       -0.7963835 -0.8669249 -1.0629488 -1.4696025

conv1.bias f4 [32]
000000 24 f9 15 bf 05 bc 45 bf 62 84 aa be 42 86 27 bf
       -0.58583283 -0.7724002 -0.33304125 -0.65439236
000010 19 bd 88 bf f7 d0 d5 be fe 80 a8 bf 05 fa 43 bf
       -1.0682708 -0.4176099 -1.3164365 -0.76553375
000020 38 84 b1 bf 81 70 bd be 8c 15 c9 be 4c 64 93 bf
       -1.3868475 -0.36999896 -0.3927425 -1.1514983
000030 8b 5f 38 bf 43 dd 93 bf 76 0f 96 bf 15 46 85 bf
       -0.72020787 -1.1551899 -1.1723468 -1.0412012
000040 02 2b e7 bf 80 8e 5a bf a3 2b 02 bf ca bf bb bf
       -1.806 -0.8537369 -0.50847834 -1.4667904
000050 42 89 1a bf 43 57 81 bf c8 6a b2 bf 6b c5 ba be
       -0.6036569 -1.0104755 -1.3938837 -0.36478743
000060 0d 73 56 bf 1b 0a 81 be 44 4e 8b bf da 9b 65 bf
       -0.83769304 -0.25203022 -1.088326 -0.89690936
000070 bc a8 91 bf 89 3e 03 bf 1e 4b 81 bf 9f f6 04 bf
       -1.1379619 -0.51267296 -1.0101049 -0.51938814

fc.weight f4 [1, 32]
000000 20 53 8e bb 4a ba 19 3e 3b 68 89 3b 47 6e e5 3c
       -0.0043434054 0.1501247 0.0041933334 0.028006686
000010 e4 4d 8d 3d f7 df 09 3c 84 21 04 3f db c0 2d be
       0.06899622 0.008415214 0.5161364 -0.169681
000020 8f a6 98 be 68 a3 6d bc 3f c1 08 bf 9e 1a bd 3e
       -0.29814574 -0.014504291 -0.5341987 0.3693437
000030 ca 5f 70 3d 22 24 47 3e 98 bb fe 3e 72 c0 c6 bd
       0.0586851 0.19447377 0.49752498 -0.09704675
000040 78 67 2e bf 2f 6c 23 3e 06 c5 37 bd ad 64 51 3f
       -0.6812663 0.15959238 -0.04486563 0.81794244
000050 19 57 b1 3c 30 dc 6f 3f 22 45 8d be 98 aa 3f bc
       0.021647977 0.93695354 -0.27591807 -0.011698388
000060 67 05 62 3d dc 46 96 be be 37 01 be bb b3 4b be
       0.055180933 -0.29350936 -0.1261892 -0.1989278
000070 64 f7 9a 3d 4a 34 67 bc 2a 26 e0 3e cf 3f b3 b8
       0.07566717 -0.014111588 0.43779117 -8.5472704e-05
