weights/GRU_best_weights.pt (torch, 158258 bytes, 9 tensors)

gru.weight_ih_l0 f4 [192, 6]
000000 b8 15 c7 3e 4e 4c 16 3e b0 35 52 3e 29 53 02 3f
       0.38883758 0.14677545 0.20528293 0.5090814
000010 3d 36 fe bd 87 6a 21 be 90 3e 85 3e fb b6 8a 3e
       -0.12412689 -0.15763293 0.26024294 0.27092728
000020 65 78 9b 3e 83 92 62 3d f1 86 8b 3e 2f 8e 17 be
       0.3036529 0.055315506 0.2725139 -0.14800332
000030 66 58 13 3e f9 c6 0a 3c 99 48 ff 3e ae 83 5e be
       0.1438919 0.00847029 0.49860075 -0.2172992
000040 9c 59 3f 3f 65 17 b2 bd c7 8b d2 3e d7 90 7a 3e
       0.7474611 -0.086958684 0.41122267 0.24469315
000050 56 7f aa bd 81 cf 94 3e bd f1 b2 be 03 62 06 bf
       -0.08325069 0.29064563 -0.34950057 -0.52493304
000060 31 3a 91 3d 44 57 c1 be d3 d0 e1 bd 68 df a0 be
       0.07091177 -0.3776189 -0.11026158 -0.31420445
000070 09 66 25 3e f3 45 23 be 42 b6 1d 3f 13 ea 31 3e
       0.16152205 -0.15944652 0.6160623 0.17374448
000080 a4 3c bb 3e 93 bf 57 3e e1 a6 75 3d a5 fe 86 3c
       0.36569703 0.21069174 0.0599736 0.016478846
000090 42 b0 93 be 7f 8d a0 3d d4 90 98 be f5 6a bf 3d
       -0.28845412 0.07839488 -0.29797995 0.09346572
0000a0 1b 34 36 3e 59 24 df 3d 24 a3 b6 bd e1 72 3f bc
       0.17793314 0.10895605 -0.08917835 -0.011685104
0000b0 9b ce e8 be d8 16 79 3e c4 0b 37 be fa 48 0b be
       -0.45470127 0.2432512 -0.17875582 -0.13602057
0000c0 ca 83 71 be e1 84 76 3d 9e 2f fe be cd c0 29 be
       -0.2358543 0.060185317 -0.49645704 -0.16577454
0000d0 39 41 01 3e a5 7b 25 3e 41 7a 6e 3e 23 06 2d 3e
       0.12622537 0.16160448 0.23288824 0.16896872
0000e0 48 58 1b 3f d7 a9 d2 be 6c 9f 95 3e 65 07 37 3d
       0.6068158 -0.41145203 0.29223192 0.044684786
0000f0 32 a3 cc 3e b4 dc b3 3e 07 06 2d 3f 95 e3 9f 3d
       0.39968258 0.3512932 0.6758732 0.0780708
000100 0a ed 39 bd 33 0d 11 bf 88 01 c6 3e 8e 9e 1f 3e
       -0.045392074 -0.56660765 0.38673043 0.15587828
000110 b6 8e 02 be b4 aa d1 be f1 45 67 38 cf f1 ee be
       -0.12749752 -0.4095055 5.513983e-05 -0.4666886
000120 8a 24 3f 3e 95 ed 94 3d e5 4f ae be 9d 21 eb be
       0.18666282 0.07271878 -0.3404533 -0.45924082
000130 15 be 0b bd 80 61 ab be 90 d4 cf 3e d2 2e ca 3e
       -0.034116823 -0.33472824 0.4059186 0.39488846
000140 6b 65 a3 bc 85 1a 65 be 0e c6 20 3e 20 b5 5e be
       -0.01994582 -0.22373398 0.15700552 -0.21748781
000150 d8 02 a3 3e 13 f0 6c 3e 89 2a 5f 3e 60 f6 c8 3e
       0.31838107 0.23138456 0.2179357 0.3925047
000160 d0 0a 7a be 24 a7 90 bd 7e f8 55 3e 97 7a 08 3f
       -0.24418187 -0.070631295 0.20895573 0.5331206
000170 e1 19 30 3e 29 cb 78 bc 72 17 b6 bd 10 8b 81 be
       0.17197372 -0.015185156 -0.088911906 -0.2530141
000180 bc 7f 98 3e 5a 19 9c bc 76 a7 18 3d 30 bc fd be
       0.29784954 -0.019055057 0.03726908 -0.49557638
000190 a2 cc b4 bd 3d 21 56 3d b0 ea 68 be 9f 0e 82 bd
       -0.08828093 0.052277792 -0.22745776 -0.06350445
0001a0 f8 c6 29 3e 0c f5 f6 3d 66 6d 07 be 98 b2 b9 be
       0.16579807 0.12058458 -0.13225326 -0.3626907
0001b0 8d 95 8b 3e 99 05 20 3f 19 28 6d 3f e5 54 d3 3d
       0.27262536 0.6250854 0.9263931 0.10318927
0001c0 75 16 ba bd ef eb d6 be 2a 56 3c be cc 6b 58 be
       -0.090863146 -0.41976878 -0.18392244 -0.21134871
0001d0 4d 3c e6 be a2 4b b0 bd 6e 0d b3 3e 98 ba 8f 3c
       -0.4496788 -0.08608176 0.34971184 0.01754503
0001e0 e0 97 21 3e d1 4a 4e be 53 2a a9 be 37 0f 02 be
       0.15780592 -0.20145728 -0.33040103 -0.12701117
0001f0 0b fd 1d 3e 27 a9 78 be 85 64 dd bd 74 d2 d8 bd
       0.1542856 -0.24283276 -0.10810188 -0.10587016
000200 0b c7 50 3d 28 08 8f be d9 58 6d 3d 64 c6 be be
       0.050971072 -0.2793591 0.05794606 -0.37260735
000210 e1 c0 6b bc df 71 fb 3e a5 72 c5 bd ed 92 cb 3d
       -0.014389248 0.49110314 -0.09641007 0.09940133
000220 97 dc 11 3e d8 6f a8 be 8e ac 29 3d 9e 63 b8 3d
       0.14244305 -0.3289783 0.041424327 0.090033755
000230 98 3f 0b 3f bb d1 a9 be ee 84 30 3e af f4 f7 be
       0.5439391 -0.33167824 0.17238209 -0.48428866
000240 fc 1c 0f 3e 77 13 c5 3e 49 ea 5e 3f f1 e2 3a be
       0.139759 0.38491413 0.8707624 -0.18250634
000250 48 49 9f 3c af f4 76 be 83 2f 0e 3f 98 54 d0 3e
       0.019444123 -0.24116777 0.5554125 0.4068954
000260 0b c8 1b 3f 75 af 80 be 9d 82 30 bd 47 09 a4 be
       0.60852116 -0.25133863 -0.043093313 -0.32038328
000270 6d b7 d5 3e e0 a7 ac 3e a1 d7 c1 3e d2 31 dc bd
       0.41741505 0.33721828 0.37859824 -0.1075169
000280 d1 ec 1d 3e 9b e4 17 3e 51 f3 94 3e 16 c1 46 3d
       0.1542237 0.148333 0.29091886 0.048523985
000290 08 1e 6e 3e 8c 88 29 be f4 1c 41 3e 23 99 b1 be
       0.23253644 -0.16555995 0.18858701 -0.34687147
0002a0 e3 46 c2 3d 4e 88 0a 3e 73 96 55 be 37 c8 f9 3e
       0.09486177 0.13528559 -0.20858173 0.48785564
0002b0 8d a3 26 bd 35 c2 13 bd e2 13 70 3e f6 0c 6b 3e
       -0.040683318 -0.036073882 0.23445085 0.22954163
0002c0 c8 b8 e5 bd f8 b4 7a bd 96 61 52 3e be 48 44 be
       -0.11216885 -0.06120774 0.20545039 -0.19168374
0002d0 6e cd a3 3e 69 65 fd 3e 26 14 61 3e f1 99 c2 3e
       0.31992668 0.49491432 0.21980342 0.38008073
0002e0 62 16 e5 b9 10 20 eb bd d3 3c 06 3f 84 9d ca bb
       -0.0004369496 -0.11480725 0.5243656 -0.006183328
0002f0 9f ef e0 ba 3f 8e 65 3e 04 6e 93 be 16 0e 9e be
       -0.0017161256 0.22417544 -0.28794873 -0.30870122
000300 a6 23 19 3e ca 18 02 3e b4 90 44 3e bb 9a 69 bc
       0.14955005 0.12704769 0.19195825 -0.014258082
000310 9f ae 5a 3e 25 a3 c1 be 39 2f 8f be 56 fc 9d 3d
       0.21355675 -0.37819782 -0.27965716 0.07714145
000320 44 42 9b be 29 25 ed 3e f1 92 cc 3e bb 6a b5 3e
       -0.30323994 0.46317413 0.39955857 0.3543299
000330 c4 1f 0f be 7b ec c0 3e 04 5b 26 3f 02 7c 56 3e
       -0.13976961 0.3768042 0.6498263 0.20945743
000340 de 56 6e 3e 42 1e 69 be da c9 30 3f b0 90 cb 3e
       0.23275325 -0.22765449 0.69058 0.39758825
000350 7c c2 89 3e a4 d1 ea 3d 42 e9 73 be e3 a9 76 be
       0.26906192 0.11465767 -0.2381945 -0.24088244
000360 13 24 22 3f ab 7a 95 3e 30 97 3c 3f b5 6d 5e 3d
       0.63336295 0.2919515 0.73668194 0.054303844
000370 00 f7 8d 3e d2 99 7a 3d 98 e6 2f be 66 17 b0 3d
       0.2772751 0.06118185 -0.17177808 0.08598213
000380 73 84 c7 be 50 9b c8 be f9 5a 98 3d 24 ff a9 bd
       -0.38968238 -0.39180994 0.07439227 -0.08300617
000390 37 74 41 bd 82 e0 f2 3d 02 42 70 3d 2b d1 a2 bd
       -0.04722997 0.11859228 0.0586567 -0.07950052
0003a0 60 a4 82 be 49 b4 dc 3e b6 17 c3 bb 8a 76 77 3e
       -0.25516033 0.43106297 -0.0059537543 0.24166313
0003b0 a1 24 c5 be a2 79 00 bf 22 f3 21 3e 3e c5 0b be
       -0.38504508 -0.50185597 0.15815404 -0.1364946
0003c0 05 0d cf 3c 83 5f 4c bd 18 d5 6e be de ff 15 3e
       0.025274763 -0.049895775 -0.23323476 0.14648387
0003d0 d7 4b 8e be ae d2 fa be 07 c6 94 be 95 8d a4 3c
       -0.27792236 -0.4898886 -0.29057333 0.020087043
0003e0 09 78 30 bf 4e da 75 3e c1 27 ba be 33 f5 ed bd
       -0.6893316 0.24009058 -0.36358455 -0.11619034
0003f0 c8 5a dc bd 68 9d d5 3d b6 71 5b 3e 53 d6 b6 bd
       -0.10759503 0.104304135 0.21430096 -0.08927598

gru.weight_hh_l0 f4 [192, 64]
000000 0f 43 0d be 62 bf 55 be 0d 7e 38 be 3f 16 39 3e
       -0.13795112 -0.20873788 -0.18016835 0.18074892
000010 cf 9b 86 3d bd 9a 53 3e 94 1e cb bd c8 34 b3 3d
       0.06572687 0.20664497 -0.09917942 0.087503016
000020 00 09 29 3e 94 41 a3 be 22 d6 11 3d 2e 42 41 be
       0.1650734 -0.3188597 0.035604604 -0.18872902
000030 c4 e3 89 be fb 5f a1 3e e4 ba f6 bd e5 ec a5 bd
       -0.26931584 0.3151854 -0.12047365 -0.08101825
000040 c1 44 47 be d3 fd 01 be 19 17 f8 bd e8 0b fb 3c
       -0.19459821 -0.12694483 -0.121137805 0.030645326
000050 d2 f5 3c be 37 55 be bc 97 32 33 3e 7c c8 77 3e
       -0.18453148 -0.023233993 0.17499767 0.24197572
000060 e6 b5 60 3e fc 96 ea 3d c4 6d 24 3d 09 02 25 be
       0.21944389 0.11454579 0.040143743 -0.16114058
000070 76 27 2d 3e 26 84 ef 3d cc 52 aa be 14 1d 85 be
       0.16909584 0.11695127 -0.33266294 -0.25998747
000080 16 c5 ee bb f7 fa 0d be 27 7f b3 3e 16 f1 75 be
       -0.007286678 -0.13865267 0.35057947 -0.24017748
000090 d5 76 18 3d c2 c8 00 be bf 40 1d be 26 45 b2 3d
       0.037222702 -0.12576583 -0.1535673 0.08704595
0000a0 f7 db c6 3d ec ab 65 be 8d 8a 12 be 29 ca 8c be
       0.09709924 -0.22428864 -0.14310665 -0.27497986
0000b0 4d a6 34 bd c9 dc 0c be e1 3c 3c 3e 19 c7 e2 bd
       -0.04410391 -0.13756098 0.18382598 -0.11073131
0000c0 09 fd cb bb 5e 71 44 3d dc 3f 99 3e b7 8d 0e 3e
       -0.0062252325 0.047959678 0.29931533 0.13921247
0000d0 d9 ae 12 3d e6 e3 3a be 9c 6b 90 3e fe 73 4c 3d
       0.03581128 -0.18250999 0.282071 0.049915306
0000e0 25 94 7b 3e 0d b1 66 3e df 4b 1a be 2a ef 20 3e
       0.24568231 0.22528477 -0.15068005 0.15716234
0000f0 fa 55 25 3e 7d 2e 2f 3e fe c6 4c be e2 f9 76 3e
       0.16146079 0.17107578 -0.19997784 0.2411876
000100 87 18 00 bd bf 3c 43 be 17 84 87 3e 2b a2 31 3d
       -0.03127339 -0.19066142 0.26467964 0.043367546
000110 29 0f 3c bc 9a 1c 0b 3d ab de e2 3d 85 66 ce be
       -0.011478224 0.033962823 0.11077627 -0.4031259
000120 a7 62 10 bd 56 14 a5 be 9b a0 9b 3d 72 53 19 3d
       -0.035250332 -0.32242078 0.075989924 0.037433095
000130 d9 75 3b 3d 9f a5 b0 bd 4a 58 f0 3d ae 17 3d 3d
       0.045766685 -0.0862534 0.1173559 0.04616516
000140 e6 6c 1d bc ac 34 fe 3c d4 c7 fe 3c 9e 38 bc be
       -0.009608483 0.031030975 0.031101145 -0.36761945
000150 d8 62 73 be 60 96 21 3d 8d 2f 9d bd f6 ff 02 bc
       -0.23768175 0.03945005 -0.07675085 -0.007995596
000160 2f cf ab bd b1 c9 aa bc 84 36 7c 3e ae 6b e6 bd
       -0.083891265 -0.020848127 0.24630171 -0.11251007
000170 4b 7e bf bc 77 34 ac 3d 36 f3 9f be c6 c7 6a bd
       -0.02337565 0.084084444 -0.31240243 -0.057319425
000180 53 b4 74 bd ff 58 25 bc a1 3e d5 3d ba b5 4b be
       -0.059742283 -0.010092019 0.10412336 -0.19893542
000190 ae 02 b3 be 5a 2c 70 bd 4e 7d b9 bd a0 59 d3 3e
       -0.34962982 -0.058636047 -0.09057103 0.41279316
0001a0 6a f5 36 be ef fb 9b bd 0b 6b 81 be 80 a4 0d be
       -0.17867056 -0.07616412 -0.2527698 -0.13832283
0001b0 9f 1d 83 3d 74 de 65 bd cc 94 c4 be 65 10 27 be
       0.06402134 -0.05612035 -0.38394773 -0.16314848
0001c0 34 d6 f5 3d 19 12 d9 3e 3f c4 5b 3b b8 18 f7 3d
       0.12003747 0.4239662 0.003353372 0.120652616
0001d0 4a dd be bd 62 f2 26 be b9 bd 20 bd 6b 62 36 3e
       -0.09319551 -0.16303399 -0.039243434 0.17810981
0001e0 23 b2 28 be b4 aa 1b 3d ec bc 2a bd 57 93 86 3e
       -0.16474204 0.038004592 -0.041684076 0.26284286
0001f0 59 f3 a9 3e 12 2a f0 3d 99 44 16 3d 8e 06 e9 3d
       0.33193472 0.11726774 0.036686514 0.11378203
000200 1d 77 ca bd dd 8b 11 be bd 9d 62 be 91 66 02 bf
       -0.09886 -0.1421351 -0.22130485 -0.50937754
000210 15 ec c8 3e 24 1d 63 bd d9 b3 b2 3e 15 0f 00 3e
       0.39242616 -0.055447713 0.34902838 0.12505753
000220 b6 75 e4 bd b6 26 3f 3e 22 dd 8a bd 51 39 c9 bd
       -0.11155264 0.18667111 -0.06780459 -0.09825385
000230 b1 ad 1f 3d ef ff b9 bd 69 54 ba 3e cf b3 49 3e
       0.038984004 -0.090820186 0.36392525 0.19697498
000240 9b 57 a7 3d eb d7 4f be ce ef f7 3d 41 b6 ef 3d
       0.08171006 -0.2029721 0.12106286 0.11704684
000250 48 db a0 3e 2c 4c 45 bd bc 37 5c 3e bb bc 8a 3a
       0.31417298 -0.048168346 0.21505636 0.001058481
000260 c4 b3 10 3e d4 57 2c bc b1 bc 29 bd 45 d4 1d be
       0.14131075 -0.010518987 -0.041439716 -0.15413006
000270 ca dd 6e 3e 62 35 58 be 16 cc 49 3d ac b3 43 3e
       0.23326793 -0.21114114 0.049266897 0.19111508
000280 cb 47 67 be 33 50 ab 3d ba 82 ad 3e 50 df 09 3d
       -0.2258598 0.08364906 0.338888 0.033660233
000290 89 7c fd bc 77 15 7d 3e 72 d2 82 3e 04 25 0d be
       -0.030943172 0.2471522 0.25551182 -0.13783652
0002a0 7e b9 ad 3e df fd b0 bd 2e 26 39 3d 1c ec 1f 3e
       0.33930582 -0.08642172 0.045202427 0.15617412
0002b0 2a 2f bc be 4c e5 96 be ab 1b 52 3d c2 19 8f 3e
       -0.36754733 -0.29471815 0.051295917 0.2794934
0002c0 ab b5 17 be e6 a1 3f be 24 81 07 3e 7f ea 96 be
       -0.14815395 -0.18714103 0.13232857 -0.2947578
0002d0 cd 61 c2 3d 07 4d 0e 3e 8f 71 1f bd a4 4f 2e bf
       0.0949131 0.13896571 -0.038926657 -0.6809027
0002e0 2a 3b 33 3e 98 f3 11 be 6f 21 ca 3e 57 bb a9 3e
       0.17503038 -0.1425308 0.39478633 0.3315074
0002f0 a5 15 5e be ba 25 93 be d2 b3 73 3e 95 5c 8c bd
       -0.21687944 -0.2873972 0.23799065 -0.06853596
000300 38 d2 7b bd 41 89 32 3c bb 7f 71 3e 97 7a 50 b9
       -0.061479777 0.010896982 0.23583882 -0.00019882094
000310 35 c5 a5 be e1 6f 65 be 88 9d 5c be 20 1a ca bc
       -0.3237702 -0.2240596 -0.21544468 -0.02467066
000320 10 65 78 3e 03 36 1a 3e cc 4e a5 3d 2d d7 cc 3d
       0.24257302 0.15059666 0.0807167 0.10001979
000330 ca 4c 2f bd c3 79 37 3e a2 cc 8c 3d d6 da 94 bc
       -0.04279784 0.17917542 0.06874968 -0.018170755
000340 d8 44 d3 bd 44 66 09 3d 07 ec 0f bf a3 ba ed 3d
       -0.10315865 0.033544794 -0.56219524 0.11607864
000350 a3 43 55 be 22 8b 3a 3e 23 d3 69 bd ae 43 67 bf
       -0.20826583 0.18217137 -0.05708612 -0.90337646
000360 a2 33 cb bb 85 14 ed 3e 95 4f 8a 3e 46 9c 0b 3e
       -0.0062012235 0.46304718 0.2701384 0.13633832
000370 67 7b b5 be 6d 66 f5 3d 7a a9 0a 3e e2 f9 30 bd
       -0.3544571 0.11982427 0.13541213 -0.043207057
000380 79 f6 6a be 15 97 21 3e 62 b4 d7 bd 52 c3 4e 3d
       -0.22945584 0.1578029 -0.10532452 0.05047924
000390 e2 2e 06 39 0c df 32 be 9c 23 e7 bd f4 1a 71 be
       0.00012796701 -0.17467898 -0.11286089 -0.23545438
0003a0 f2 c5 28 be 64 ad bd 3c b1 52 d4 be be 29 01 3f
       -0.1648176 0.023153968 -0.4146934 0.5045432
0003b0 ad 2c 15 3e e4 ef b1 bd 66 eb 15 be b5 83 db bd
       0.14567824 -0.08688334 -0.14640579 -0.107184805
0003c0 a8 40 18 3d b2 2b 78 3e 1c fc db 3d 2a b7 81 3e
       0.037171036 0.24235418 0.107414454 0.25335056
0003d0 77 ef d9 be ee f6 8f be 71 69 6a be 86 a8 fb 3c
       -0.4256551 -0.2811808 -0.22891785 0.030720007
0003e0 25 1c 12 be a6 5b a1 3d 66 cd 86 be de 59 ec be
       -0.14268549 0.07878809 -0.26328582 -0.46162313
0003f0 71 4a 06 bc 8f 2f 8b 3e 4b b4 80 3d 02 eb 02 3d
       -0.008196459 0.27184722 0.06284388 0.031962402

gru.bias_ih_l0 f4 [192]
000000 8f 1d 5f bd 5c d2 c8 bd fd 22 f5 bd b9 34 9a bb
       -0.05447155 -0.09805748 -0.11969564 -0.004705992
000010 30 bc bb 3d e9 8e f8 3d 49 91 89 bd db 95 38 be
       0.09166753 0.12136633 -0.06717164 -0.18025915
000020 02 30 bc 3d fb 2e b8 be 4b f8 68 bc 94 b1 0c bd
       0.09188844 -0.35973343 -0.014219354 -0.03434904
000030 c7 ca f6 bd 5a 8d 7d bd f2 54 7b 3d ee c3 10 be
       -0.120503955 -0.06190238 0.061360307 -0.14137241
000040 21 6d 88 be 9d a0 8e bd 4e a2 d2 bd 0f bd 38 3e
       -0.2664576 -0.06964228 -0.102848634 0.1804087
000050 52 9c b4 bd 1b f0 87 be 11 30 78 bd 57 d7 db bd
       -0.08818878 -0.26550373 -0.060592715 -0.10734432
000060 a6 d9 bf 3d 30 83 be bd 03 bb 05 be c9 bc fe bb
       0.09367685 -0.09302366 -0.1305962 -0.00777397
000070 17 d1 3f 3c 1c a4 aa bd 22 94 4c be 0e 09 00 3b
       0.011707566 -0.08332083 -0.19978383 0.0019536647
000080 71 ca c6 3c 72 97 51 3c 2e 55 ad 3d 68 de b0 be
       0.024266453 0.012792455 0.08463512 -0.34544683
000090 aa 9f 7c 3e 83 0e f2 bd c1 75 46 be 61 59 30 bc
       0.24670282 -0.11819174 -0.19380857 -0.010763497
0000a0 02 7d ab bd 37 dc 86 be a7 85 82 be 5a 52 32 bd
       -0.08373453 -0.26339886 -0.25492594 -0.043535568
0000b0 36 a0 08 be 29 49 e1 bd 52 91 3e 3d 76 4e bf 3d
       -0.13342366 -0.11000282 0.046525307 0.09341137
0000c0 9f 30 09 be 2b 94 b1 be b5 da 07 be fb da 36 3d
       -0.13397454 -0.34683356 -0.13267024 0.04464243
0000d0 e3 f7 82 3d 00 b1 d0 be db a5 4f 3d f8 18 b0 bd
       0.06394937 -0.4076004 0.05069528 -0.085985124
0000e0 74 dc 25 be 20 89 11 3e a8 d3 dc bd 8d 3f 13 38
       -0.16197377 0.14212465 -0.10782558 3.5106717e-05
0000f0 1b 3e 9d bb 03 94 83 be 94 a1 01 be f3 b8 6e be
       -0.0047986633 -0.2569886 -0.12659293 -0.2331274
000100 2c 3b 74 3d 5a 4f 77 bc f3 9a fc 3d 12 70 37 3f
       0.059626743 -0.0150946025 0.12334242 0.7165538
000110 04 1b d0 bc 68 18 95 3d 6e d2 6b bd 64 e3 d8 3b
       -0.025403507 0.07280046 -0.05757373 0.006618904
000120 16 31 96 be 75 1e 22 3f 39 18 82 3e ab 7a 14 bf
       -0.29334325 0.63327724 0.25409105 -0.57999676
000130 bf 00 c4 be 9f 77 f3 3e 7c da d1 bc 06 bc 31 3e
       -0.3828182 0.475522 -0.025616877 0.17356881
000140 27 7c 55 3f cf c9 3e 3e b5 7e 0e 3f 68 c6 ff ba
       0.83392566 0.18631671 0.5566209 -0.0019514086
000150 c5 9e cd 3d 07 8c 72 be 75 6c 09 3e 79 30 c9 3d
       0.100400485 -0.23686229 0.1342028 0.098236986
000160 3b 10 1b 3e 79 df 10 3f 7a 7b bc 3e ab 8e 20 3d
       0.1514291 0.5659099 0.36812955 0.03919856
000170 79 37 f4 bd 32 81 7b 3e 5a 15 bb 3e db f6 16 3e
       -0.11924643 0.24561003 0.36539727 0.14742605
000180 97 23 ac 3c 92 5a 86 3e a2 4d 76 be 8a 77 0d 3f
       0.021013064 0.26240975 -0.24053052 0.5526053
000190 cd b1 8d 3e 21 78 f6 3e 00 44 0a 3f 23 12 85 bd
       0.27674714 0.48138526 0.5401001 -0.064976
0001a0 70 a4 e9 3e dc 24 f6 3e f8 23 84 3e 4e cb 9b 3e
       0.45633268 0.48074996 0.25808692 0.30428547
0001b0 f2 84 2e be d2 9c 92 3e 0e 4d 17 be 74 d4 39 3b
       -0.17042902 0.2863527 -0.14775488 0.0028355392
0001c0 79 3f 14 3f dc f8 1e 3f 2c f5 bf be a2 9a da bd
       0.5790935 0.6209848 -0.3749174 -0.10674025
0001d0 76 d4 7b 3e a6 56 e1 3e 98 19 c7 be 6c e2 f6 3d
       0.24592766 0.4401142 -0.38886714 0.12054905
0001e0 fa d8 7a bd 0b 2a c8 3c 20 a0 d1 3d ff 21 f0 be
       -0.06124208 0.02443411 0.102356195 -0.46900937
0001f0 a5 21 9e 3e 8d ea bb 3e 30 20 90 3d ef 8f c2 3e
       0.30885044 0.36702386 0.07037389 0.38000438
000200 e3 a1 8a 3d 51 cf 12 3d 5c 1e 11 3d c9 bd 9e bd
       0.06769159 0.035842244 0.035429344 -0.077510424
000210 71 a5 71 bd 38 36 92 bd d4 b3 8d bd 52 0a fb 3c
       -0.058995668 -0.07139248 -0.06919065 0.03064457
000220 15 7f b8 3d 0a 19 ce 3c 2b 47 e7 3d 20 6c eb 3c
       0.09008614 0.025158424 0.11292871 0.028738081
000230 ae cf 88 3d 58 2e c7 bd 34 f5 f4 3c 95 8a 64 3e
       0.06680237 -0.09725636 0.029902078 0.2231849
000240 4f d9 12 3d 61 68 ba ba f3 df 0f bd f3 f8 72 3c
       0.035851773 -0.0014221781 -0.035125684 0.014829862
000250 23 1c 49 bd 77 43 ca 3d 3a a3 b4 3c f0 45 08 be
       -0.0490991 0.09876149 0.022050489 -0.13307929
000260 ac 41 8f bc 13 74 06 be 27 e8 17 be 71 26 92 bb
       -0.01748737 -0.13130216 -0.14834653 -0.004460149
000270 bb 30 0c be 74 35 8b bc 0a eb b7 3d a4 e5 62 3d
       -0.13690464 -0.016993262 0.08980377 0.055394784
000280 12 49 c1 bd 25 5b a8 3d f0 c2 1e be 22 6f 1f 3e
       -0.09437765 0.082205094 -0.1550405 0.15569738
000290 9f 6b b7 3c c5 7f eb 3d d7 fc 0a 3e b1 2a 16 be
       0.022390185 0.114989795 0.13573013 -0.14664723
0002a0 f5 23 f1 3c af 6f 26 3e 8e 9e 0d 3e a3 63 87 3d
       0.029436091 0.16253541 0.13830015 0.06610801
0002b0 0b 1f 8b bd bf bf 1e be 3c 7f 70 bd 65 c7 49 3d
       -0.0679303 -0.15502833 -0.05871509 0.049262423
0002c0 3a 26 17 be 08 56 11 be da 5a 06 be e6 4b 77 3d
       -0.14760676 -0.14192975 -0.13120595 0.060375117
0002d0 4a 7f 0d be 6b a3 22 3e 86 7f ce bd 95 b5 9a 3d
       -0.13818088 0.15882652 -0.10082917 0.07554165
0002e0 86 00 15 be 60 97 eb bd f5 02 b1 bc a2 24 40 3d
       -0.14550981 -0.11503482 -0.021607855 0.046909936
0002f0 b2 20 38 bd 62 9c 80 bd 44 5a ad 3c 06 4d 81 be
       -0.044953056 -0.06279828 0.021161206 -0.25254077

gru.bias_hh_l0 f4 [192]
000000 79 0e 1d be 73 a2 af bd d9 db bd bc 93 05 64 bb
       -0.15337552 -0.085759066 -0.02317612 -0.0034793362
000010 53 37 ec bd 1f 0d 11 3e ed 83 40 bc 8a fe 01 be
       -0.1153399 0.14165162 -0.011750204 -0.12694755
000020 a0 3d 66 3d e6 60 51 be 78 14 4e be 62 6f fa 3c
       0.056211114 -0.2044712 -0.20124996 0.03057069
000030 30 be 3b bd 95 54 fd bd 85 26 f6 bd 59 98 5f be
       -0.045835674 -0.12369648 -0.12019066 -0.2183546
000040 dd 5a 8e be 1f 43 83 3c 7e ef da bd 77 3d 31 3e
       -0.27803698 0.016023217 -0.10690211 0.17308603
000050 95 4d 06 be dc 94 1b be b5 50 39 3d ec 8a c9 bd
       -0.13115533 -0.15193504 0.045242984 -0.0984095
000060 88 8e 02 be 7b 72 35 be e9 f9 70 bc 29 33 fc bd
       -0.12749684 -0.17719452 -0.014708021 -0.123144455
000070 6e d0 9e 3d 5c a7 a1 bc 4c 1b 3b bd 49 00 5a bd
       0.077545986 -0.019733123 -0.04568033 -0.05322293
000080 2f 06 e2 3d 90 da 80 3d d4 20 00 be 46 0d b9 be
       0.11036336 0.062916875 -0.12512523 -0.3614294
000090 8d bb f5 3d 3e 31 17 be 10 44 72 be c8 ac 9a 3d
       0.11998663 -0.14764878 -0.23658776 0.07552487
0000a0 75 21 8c bd 10 71 c5 be c3 e9 c1 be 90 2c 68 3d
       -0.06842319 -0.38562822 -0.3787366 0.056683123
0000b0 e2 4f 32 be 19 86 20 bd 25 4b bc 3d c5 16 4d 3e
       -0.17413285 -0.039190385 0.0919402 0.20028217
0000c0 fc 0b 00 be 55 67 e2 be 8c bd cc bd a1 0c 0d be
       -0.12504572 -0.4421946 -0.09997091 -0.13774349
0000d0 df aa 18 be 1b 86 6c be 8a 5a d5 3c f7 69 ed bb
       -0.14908932 -0.23098032 0.026044149 -0.007245298
0000e0 81 9c 98 3a 7b 69 bb 3d f2 ad 91 bd 66 7d 47 bd
       0.0011643321 0.09150978 -0.071132556 -0.048703574
0000f0 55 46 cf bb 02 f3 6e be ba c1 d5 bd 46 24 33 be
       -0.006325523 -0.23334888 -0.10437341 -0.17494306
000100 38 83 a2 bd 24 37 99 3d 92 78 39 3e 36 c6 4a 3f
       -0.07935184 0.0748122 0.181124 0.79208696
000110 f4 88 d5 bd 78 63 b9 3d b5 36 0d 3d cb fa a4 bc
       -0.10426512 0.09052175 0.034476 -0.020139119
000120 2b 80 5b be d3 14 2b 3f fa 9a 03 3e a5 2e 18 bf
       -0.21435611 0.6682865 0.12852088 -0.59446174
000130 a0 49 ae be 73 f0 10 3f 5e ce 36 3d 6d fa 1b 3e
       -0.34040546 0.56616896 0.0446304 0.15232249
000140 2d fc 52 3f a2 48 64 3e 76 c0 e3 3e 4d 52 65 3e
       0.8241604 0.22293332 0.44482774 0.22394677
000150 cd b4 a0 3e 86 f3 b2 be d9 03 4e 3e a6 8c 63 3d
       0.3138794 -0.3495142 0.20118655 0.055554055
000160 a8 a3 3f 3c f2 c0 38 3f 60 f0 a6 3e 6e 56 96 3d
       0.0116967335 0.7216941 0.32605267 0.07340704
000170 b1 39 69 be 98 48 ae 3e ab e5 f1 3e d7 34 90 3e
       -0.22775914 0.3403976 0.47245535 0.28165314
000180 be c0 79 bd ba 2e 40 3e aa 18 ab bd 04 36 e0 3e
       -0.06097483 0.18767825 -0.08354314 0.4379121
000190 8a 5f 49 3e 5f 42 d3 3e c7 2e 1b 3f 17 b2 aa bd
       0.19665352 0.41261575 0.6061825 -0.08334749
0001a0 ec ff fb 3e a1 36 09 3f 49 4e 8d 3e 31 65 a9 3e
       0.4921869 0.5359898 0.2759879 0.33085015
0001b0 6f 67 8b 3c 8e ac 86 3e 99 21 67 be 25 ef e4 3d
       0.017017094 0.26303524 -0.2257141 0.11178426
0001c0 29 b5 1a 3f 49 d4 dd 3e e2 12 bd be dd bb b7 bd
       0.6043268 0.43326023 -0.3692847 -0.08971379
0001d0 ca 4a 58 3e 6d 8a 08 3f 48 73 a5 be d9 b6 05 3e
       0.2112228 0.5333622 -0.32314515 0.13058032
0001e0 3f 0e 43 be 29 be 81 3d 2f 4d 77 3e b1 74 f9 be
       -0.19048403 0.06335098 0.24150537 -0.4872184
0001f0 d8 50 9e 3e c0 23 b6 3e 42 e2 c8 3d 6c d0 f2 3e
       0.30921054 0.3557415 0.0980878 0.47424638
000200 f6 4d bc 3a 34 fb 39 3d a5 ce 00 bd 6e 0f b8 bd
       0.0014366496 0.04540558 -0.03144707 -0.08987318
000210 dc 4f 1b bc 43 4f 97 be f0 7c 3a bd af d3 9f 3d
       -0.009479489 -0.2955266 -0.045529306 0.07804047
000220 86 bb 44 3c 82 92 35 bd 8e 3a d0 3c c4 1e 69 3e
       0.0120076 -0.044329174 0.025418546 0.22765642
000230 b8 55 58 3e 71 fb e4 bd 28 c6 e5 3c 95 66 c3 3d
       0.21126449 -0.11180771 0.02804859 0.0954105
000240 4a 94 73 3d 4a 2c d5 3d 20 cb dd 3d 16 77 1c 3e
       0.05946759 0.10408838 0.10829759 0.15279803
000250 d9 32 07 3d 56 30 14 3e 28 23 c6 3d e1 13 29 be
       0.033007476 0.14471564 0.09674674 -0.1651149
000260 29 59 de 3a 6b c7 9a bd 3f 83 da bd e8 6c c2 3d
       0.0016963828 -0.07557567 -0.106695645 0.094934285
000270 e0 65 7e 3d 64 d6 05 bd 40 0c c7 bc 45 b4 03 3e
       0.062108874 -0.032675162 -0.024297833 0.12861736
000280 bf f9 d5 bd c8 0c c1 3d f7 b2 bc 39 01 00 1a 3c
       -0.10448026 0.09426266 0.00035991493 0.009399415
000290 b2 89 44 3e f9 39 c5 3d e6 a8 06 3e 34 e6 aa bd
       0.19193152 0.09630198 0.13150367 -0.08344689
0002a0 ad 11 b1 39 a3 c8 d3 3c fc f8 d0 bc f9 48 42 3e
       0.0003377324 0.025852507 -0.02550935 0.1897315
0002b0 ae 78 71 3b 2b 1a ac bc 00 40 8f 3d fb 19 f2 3d
       0.0036845612 -0.021008572 0.06994629 0.11821362
0002c0 f8 cf 4c be bb c7 27 bc fa e4 93 bd e1 62 23 be
       -0.20001209 -0.010240491 -0.07221408 -0.15955688
0002d0 8e 5d 2f be 02 54 1b 3d 2b 8f 14 be 7b 2b 32 be
       -0.17125532 0.037921913 -0.14507739 -0.17399399
0002e0 5e 2b 51 3d 94 81 16 be d1 cf 89 3c 19 18 bf bd
       0.05106675 -0.14697868 0.016822727 -0.09330768
0002f0 08 2d 25 3d 7d 81 c1 3d 53 4e 0f 3c 4d ad af bc
       0.04032615 0.09448526 0.008746701 -0.021444941

gru.weight_ih_l1 f4 [192, 64]
000000 e4 8a 47 be 52 4a d7 bd 88 10 04 be d9 b0 24 be
       -0.19486576 -0.10512222 -0.12896931 -0.16083087
000010 db 88 98 3d 5d 23 74 be b8 b8 ba 3d e2 0a 45 bd
       0.07447978 -0.23841615 0.091172636 -0.04810608
000020 21 37 ee bd d8 6c 55 be a3 f2 22 bd a3 c4 b7 bd
       -0.11631609 -0.20842302 -0.039782178 -0.08973052
000030 fe 2b 9c bc 2e d8 95 bc 1d 69 da bc 2c 68 00 3e
       -0.019063946 -0.01829156 -0.02666145 0.12539738
000040 2c f6 7d bb 3d f8 4f bd b6 79 01 3e 7b 38 b5 bd
       -0.0038751466 -0.050773848 0.12644085 -0.088486634
000050 59 ee be bc 8f 18 e4 3b a1 5e 80 3e a5 18 c0 3d
       -0.023307012 0.0069609354 0.25072196 0.093797006
000060 01 97 3c 3e 60 49 b0 bd e9 fd ad bb 5d 1e 48 3e
       0.18416978 -0.08607745 -0.0053098095 0.19542833
000070 a8 fe 39 be 37 a2 27 3d 90 8e 55 be a1 33 09 3e
       -0.1816355 0.040926185 -0.20855165 0.13398601
000080 11 27 23 be 5d 73 85 3a 6b 90 0b bd 62 67 1c 3e
       -0.15932871 0.0010181476 -0.034073275 0.15273812
000090 d1 e4 1b bb d8 03 8c 3d 6d b1 af 3d b1 11 16 3e
       -0.0023787508 0.06836671 0.08578763 0.14655186
0000a0 1f de 09 bd 05 98 22 3e d5 62 0f bc 37 82 3d 3e
       -0.033659097 0.15878303 -0.008751591 0.18506704
0000b0 df e7 05 be 42 38 ff bd 30 91 c7 3c 71 ce ef 3d
       -0.13076733 -0.12461902 0.024361223 0.117092974
0000c0 6d a6 8c be a1 08 d5 bc eb 18 ca 3d 86 11 aa bc
       -0.27470723 -0.026005091 0.09868034 -0.020760309
0000d0 f4 a1 9b bd f8 0f 39 3e d8 f0 08 be a2 de 1c be
       -0.075992495 0.18072498 -0.13373125 -0.15319303
0000e0 ef 5b c3 3c 9d 64 37 bd 00 69 c3 bd 09 f9 d6 3d
       0.023847548 -0.044773687 -0.095415115 0.104967184
0000f0 d3 03 f3 3d 5b b7 36 3d a1 b7 21 be b3 76 bd bd
       0.11865964 0.044608455 -0.15792705 -0.09251156
000100 79 c2 f4 3d 59 bb 66 bc 46 66 fa 3d 30 a4 1c 3d
       0.11951155 -0.014082753 0.12226538 0.03824252
000110 89 56 74 3d 03 67 27 3e 23 91 f1 3d bf 41 82 bb
       0.05965284 0.1634789 0.11795261 -0.0039751227
000120 f4 74 87 3a a1 5b fe bd f7 c9 fd 3c 70 12 52 bc
       0.0010334537 -0.124198206 0.030980093 -0.012821779
000130 73 f4 08 3e 9a ce ae 3c 6f 5a ec bd e4 c8 87 bd
       0.133745 0.02133875 -0.11540686 -0.06630114
000140 1b 93 72 3d 4d 7f 2c 3d 8d f0 05 bb 86 81 ce 3d
       0.059222322 0.04211359 -0.002043757 0.100832984
000150 ae 1d 02 3e d1 ef 42 bd d4 a5 4a be 57 8b 7d 3b
       0.12706634 -0.047591988 -0.19789821 0.003868779
000160 1d 55 b0 bc 6f 30 31 3e 0d 92 9a 3d a0 9d b2 3e
       -0.02152496 0.17303632 0.07547388 0.34885883
000170 7a 67 3f bd 46 d1 48 3a f5 46 39 3c 62 79 5a bd
       -0.046729542 0.00076605787 0.011308421 -0.053338416
000180 28 eb 55 be f3 f1 8b bd a0 85 78 be 3e 94 6b be
       -0.20890486 -0.068332575 -0.24269724 -0.23005769
000190 2f e7 11 be c3 bb 91 3d 84 ab 85 bd 92 14 a5 3e
       -0.14248346 0.07115891 -0.06526855 0.32242256
0001a0 be fe c5 bc e0 3f b1 3d ad 1a 0f be d5 cc 1f 3e
       -0.024169322 0.08654761 -0.1397502 0.15605481
0001b0 22 cc 8c 3c 1b c1 f4 bd 39 e3 4d bc 79 f3 90 3d
       0.017187182 -0.119508944 -0.012566381 0.07077689
0001c0 a9 f1 0c be 52 23 a2 bd 41 2f c4 bc 9b ff 33 3e
       -0.13764061 -0.07916893 -0.023948314 0.17577974
0001d0 ad fb 8f 3e 51 34 d7 bd 83 64 7e be dd 98 23 3d
       0.281217 -0.105080254 -0.2484303 0.039940704
0001e0 59 5a bf bd fe 49 04 bd dd 03 e9 3d dd f9 1d be
       -0.09343404 -0.032297127 0.1137769 -0.15427347
0001f0 06 dd 93 3e 8f 14 b2 3e 1c 66 e4 3d b6 7d 09 3e
       0.28879565 0.3478131 0.11152288 0.13426861
000200 4b 90 4e bd d3 55 93 bc 12 07 a0 3e 3e b0 af 3c
       -0.050430577 -0.01798526 0.31255394 0.021446344
000210 42 e0 95 bd 69 33 21 3e 28 d6 09 3d 12 47 92 be
       -0.073181644 0.15742268 0.0336515 -0.28569847
000220 54 9d 0c 3d a8 57 31 bd a3 2b 08 3e 49 89 6e 3a
       0.034329727 -0.043296486 0.13297896 0.00090994366
000230 80 e4 33 bc b5 5b 45 3d 32 ac f5 bc 7a ea 8d be
       -0.010979772 0.04818316 -0.029989336 -0.27717954
000240 75 41 84 3d fb f1 b5 3d 59 46 5d bc 54 46 4c 3d
       0.064577974 0.08884045 -0.013505542 0.049871758
000250 68 4a 00 3e 5c 6c a1 bd 0e 1d 08 3c 13 47 21 bc
       0.12528384 -0.07881996 0.008307708 -0.009843606
000260 68 57 1c bd 4f 26 c9 3d 3d 6b 78 3e 4c c2 7c 3e
       -0.038169295 0.0982176 0.24259658 0.24683493
000270 04 51 2d be 87 7e 0d 3d 01 3e c1 3d 8e 4b 89 bd
       -0.16925436 0.034544494 0.094356544 -0.06703864
000280 93 38 11 3e 6f e3 18 3d d3 9a 82 be 43 58 43 3e
       0.14181738 0.037326273 -0.25508747 0.19076638
000290 f3 02 a4 3c 52 2f 9a be 57 08 3d be bd 85 53 3d
       0.020020938 -0.30114228 -0.18460213 0.051641215
0002a0 c3 9a 0c bd 80 3b 4d 3d a6 d4 06 be ab 30 a8 bd
       -0.03432728 0.05010557 -0.13167056 -0.08212408
0002b0 70 39 1f 3d f8 1a fe 3d e3 51 2f be e6 74 2f be
       0.038873136 0.12407488 -0.17121081 -0.17134437
0002c0 fc b0 0a 3e ce fb 3e 3d 75 00 86 3d c1 9a 0b 3c
       0.13544077 0.04662686 0.06543056 0.008520783
0002d0 a7 9c 1e 3e 88 dd 46 bd 4f 5c 45 be c9 65 1e 3e
       0.15489446 -0.048551112 -0.19273494 0.15468515
0002e0 45 b2 ba bc 13 74 08 bc bc e4 5a bd 95 83 40 bd
       -0.022790084 -0.0083284555 -0.053440794 -0.047000486
0002f0 54 a7 cc 3d d3 62 e2 3e 6d 1c d1 bd aa 1c 96 3e
       0.09992853 0.44216022 -0.102105 0.29318744
000300 84 b7 c6 bd 2d 80 44 bd e5 8a dd 3d ce 35 4d 3d
       -0.097029716 -0.0479738 0.10817508 0.05010014
000310 47 06 9d be 9f 47 4c 3e 2d 54 d0 bd 7d db 3e be
       -0.30668852 0.19949196 -0.10172305 -0.18638416
000320 5c 09 ad 3d e5 f4 ad bd 55 ef 5c 3b bf c3 d3 bd
       0.08449051 -0.084939755 0.003371199 -0.1034007
000330 be eb 02 be bb b1 da 3d 00 d7 e8 bd 8e 3a 1a be
       -0.12785241 0.10678431 -0.11369133 -0.150614
000340 ef 73 21 3e 03 16 35 be cc fd 3f be 56 78 42 3e
       0.15766881 -0.17684178 -0.1874916 0.18991217
000350 14 0a 0f be f3 cf 2c 3c 9e e1 08 3d 54 ba fc bc
       -0.13968688 0.010547626 0.03341829 -0.030850567
000360 7a e9 2d 3e 01 9c c5 3d f3 44 02 3e 9a 40 f4 3d
       0.16983595 0.09648896 0.12721615 0.11926384
000370 7e 8b 9d be cd 8d 05 3e 68 6b d4 3b d0 f1 5e 3d
       -0.30770487 0.13042374 0.0064825304 0.05442983
000380 06 10 83 bd 8c e9 93 3d 6f 0c ea bd 90 87 64 3d
       -0.063995406 0.0722228 -0.11428153 0.055793345
000390 0b 07 12 be 44 aa 74 bd 9c 26 0e 3d 64 50 77 3e
       -0.14260499 -0.05973269 0.03470479 0.2415176
0003a0 fd 45 7e be ad aa 0f 3e 7a 96 9d bd 61 ba 57 bd
       -0.24831386 0.14029951 -0.07694717 -0.05266798
0003b0 ee e0 3c 3d 59 85 aa bd 7e b3 08 bc c2 41 a6 bd
       0.046112947 -0.08326215 -0.0083435755 -0.08118011
0003c0 23 9b a8 3d 9b b0 83 3e de 25 8e 3d c8 86 32 bc
       0.08232715 0.25720677 0.06940816 -0.010896392
0003d0 4f 1d 31 be 92 ca f8 bd e0 4c 33 be 6e c9 ca 3d
       -0.17296337 -0.12148012 -0.17509794 0.09901701
0003e0 36 d5 69 be 6f 15 01 be c2 b6 66 bd fb 51 b4 be
       -0.2283524 -0.12605833 -0.056326635 -0.35218796
0003f0 31 05 b8 3e 1a 82 9c 3e 1c d9 a4 3d b2 10 79 bc
       0.3594146 0.3056801 0.08049223 -0.015201734

gru.weight_hh_l1 f4 [192, 64]
000000 b6 e5 3f 3d 23 01 03 3d 70 d9 52 3d 5e d5 64 be
       0.04684993 0.031983506 0.051476896 -0.22347018
000010 95 cd 38 be 6b c3 03 39 c7 be 25 3e 93 91 2c 3e
       -0.18047173 0.00012565932 0.16186057 0.16852407
000020 1a 4d 9d 3d e6 7f 02 3c 65 25 10 bb 88 12 40 bc
       0.076807216 0.007965064 -0.0021994945 -0.011723168
000030 6a d3 65 bd 09 fc 4b be 3b a2 f5 bd 86 6f 1c bd
       -0.056109823 -0.19920363 -0.11993834 -0.038192295
000040 a0 d3 23 bd ba 0b 1e bc 4b 6b 95 3c 37 50 25 3e
       -0.039996743 -0.0096463505 0.018239638 0.16143881
000050 b9 aa 55 bd 3e 84 3f 3d 93 fc 16 3e be 76 e7 bc
       -0.052164767 0.046756975 0.14744787 -0.028254863
000060 96 6a ad bd e8 24 9c 3d 6f cc 0b 3d 85 96 10 3d
       -0.08467595 0.07624227 0.03413051 0.035299797
000070 91 d9 0e be 9e df 8a 3b 69 dc b8 3d e8 04 9d 3d
       -0.13950182 0.004238083 0.09026415 0.076669514
000080 08 06 06 be a6 5d 7b bc c4 c9 20 bd f1 1f 63 3e
       -0.13088238 -0.015342152 -0.03925492 0.22180153
000090 16 60 38 be b4 41 b0 3d 8a 79 70 be 72 c2 ca bc
       -0.18005404 0.08606282 -0.23483863 -0.024750922
0000a0 2c 9e 30 be c4 32 ec bc fe f3 9a bd 49 be 89 bc
       -0.17247838 -0.0288328 -0.07566069 -0.016814368
0000b0 32 b7 1f 3c 74 e3 f3 3d 7e 3b 9e 3c 2e dd 06 be
       0.009748267 0.119086176 0.019315477 -0.13170311
0000c0 63 84 3c 3d 7b 50 28 3e c9 79 90 bd 99 4f b9 bd
       0.04602469 0.16436951 -0.07054479 -0.09048385
0000d0 33 4c b2 bc 60 ce 78 bd b3 f5 c8 3d a5 28 c5 bd
       -0.02176485 -0.06074369 0.098124884 -0.09626893
0000e0 ab 87 98 bd d1 01 b5 3d b2 5c 14 be 01 17 ad bc
       -0.074477516 0.08838237 -0.14488485 -0.021129133
0000f0 e5 23 9d 3d 26 7f c8 bc 39 27 66 be 03 a7 31 be
       0.07672862 -0.024474692 -0.224759 -0.17348866
000100 34 0e af 3d df 8b 08 3e da db bc bc 86 34 0a be
       0.08547631 0.13334607 -0.023054052 -0.13496599
000110 8f 1e 32 bd 13 d9 7b 3d 1c eb ab bc f6 4b 92 bd
       -0.043486174 0.061486315 -0.020986132 -0.07143395
000120 58 e5 4c bd 4e ea 9a 3e 91 d1 72 bd 9c 69 3d bc
       -0.050023407 0.30256885 -0.05928189 -0.011560824
000130 22 c8 34 be 00 d6 aa 3d 9e 13 18 3c f3 09 ed bd
       -0.1765447 0.083415985 0.009282021 -0.11574163
000140 c4 e3 42 bd 34 4b 7d 3d 51 ea f7 3d 16 70 cb bd
       -0.047580495 0.061839297 0.12105239 -0.09933488
000150 58 a8 67 bd 96 24 96 bb 7b 43 d9 bc 80 23 b7 bd
       -0.05655703 -0.004581998 -0.026521435 -0.08942318
000160 1a 33 7e bd 0b 66 4d 3e f1 a2 79 bd e2 10 42 3e
       -0.062060453 0.20058458 -0.06094641 0.18951753
000170 f5 43 84 3c 0b 73 f0 bd 59 10 cd bd 50 6c 02 3e
       0.016145686 -0.11740693 -0.10012884 0.1273663
000180 04 27 bc bd 57 04 41 3d 06 32 34 3c 5f 18 6b 3e
       -0.09187129 0.04712328 0.010998255 0.22958516
000190 26 44 10 be c0 9f 93 3c 66 66 9e 3c 96 aa 12 b9
       -0.14088497 0.01802051 0.019335937 -0.00013987193
0001a0 62 33 48 be d3 c4 61 bd e1 bd 63 bc 53 70 a4 3b
       -0.19550851 -0.055119347 -0.013900251 0.005018273
0001b0 a5 d1 a9 bd 30 8b 96 3d 47 e8 22 bd fa cd b0 bd
       -0.0829194 0.07350767 -0.0397723 -0.08633037
0001c0 85 7e 32 bd 6b 7f 7c bd ed 09 8c 3d 7a 18 ac 3d
       -0.04357769 -0.061644953 0.06837831 0.08403106
0001d0 ee 3a 74 3d cc d3 39 bd f8 e0 aa 3d e7 29 ce bd
       0.059626512 -0.045368 0.08343691 -0.10066586
0001e0 dd 64 a1 3d c8 b8 1b 3c 7e da 02 3e 94 69 56 bc
       0.07880566 0.0095045045 0.1277866 -0.013086695
0001f0 b3 4e c1 bd 32 82 c0 bd 9e 9b 40 3d 4d 8c 86 3d
       -0.09438839 -0.09399833 0.047023408 0.06569729
000200 df 15 99 3c 5c c1 df 3a f9 8c a9 bd f7 31 89 3c
       0.018687187 0.0017071175 -0.082788415 0.016747458
000210 58 8e 9c bd 37 d4 a3 3c 45 97 85 bc 07 7b 77 bd
       -0.076443374 0.019998653 -0.016307482 -0.060420062
000220 aa f6 34 3d 79 ea cb 3d 41 eb ce 3d c4 24 28 39
       0.04418055 0.099568315 0.10103465 0.00016035425
000230 f7 a0 81 ba aa 38 ab 3d 4c 07 bf bd 0d b0 2f 3e
       -0.000988989 0.08360417 -0.09327564 0.17157002
000240 76 a4 56 bd 2d ba 46 3d a1 72 f1 3d 0f 33 54 be
       -0.052402936 0.048517395 0.11789442 -0.20722602
000250 57 8a 1b be 85 66 6a bd df d0 b9 3d c1 db 37 3e
       -0.15189491 -0.057226676 0.09073042 0.17954923
000260 7d 92 7e be 85 67 1d 3e 4b 2a 19 3d e6 0c 02 bb
       -0.24860568 0.15371521 0.03739385 -0.0019844114
000270 5f e1 fd 3c 23 18 46 3d 2a 69 cf bd 63 4f 7f bc
       0.030991254 0.048362862 -0.1012748 -0.015582892
000280 7c 52 88 bd e2 35 98 bc ba 2a 82 bc 9b 68 fb bc
       -0.06656358 -0.01858038 -0.015889514 -0.030689528
000290 da c1 f5 3b 72 46 a1 bd 54 26 0f be 40 ad f4 bc
       0.0074999155 -0.078747645 -0.13979465 -0.029867768
0002a0 6f eb 03 3e 5f 19 80 3d f2 29 eb bd 42 50 88 3b
       0.1288278 0.06254839 -0.1148261 0.004159958
0002b0 5d 94 39 3e f8 64 de bd bc cd 7b 3d 2c f1 5b bd
       0.18123002 -0.10859102 0.0614755 -0.053696796
0002c0 71 c4 86 3d 45 45 12 be 3a 82 ee bd 43 6a d7 3d
       0.06580437 -0.14284237 -0.116459325 0.10518315
0002d0 52 f5 cc 3d 69 7e 16 3e 31 b0 73 3d be 8a 9a 3b
       0.10007729 0.14696659 0.0594942 0.0047162464
0002e0 9f 68 4e 3d 4b 01 9e bd cb 92 17 bd b0 df 5e bd
       0.050392743 -0.0771509 -0.037005227 -0.054412544
0002f0 73 1f f1 bd 76 64 6f be c9 66 57 3d 9d 7e 0a 3e
       -0.117735766 -0.23378167 0.052588258 0.13524862
000300 a4 6b 0b 3d bb 12 3e 3d 51 72 aa 3c 3a ad 80 be
       0.0340382 0.04640458 0.020806463 -0.2513216
000310 b0 27 26 3e ee db 16 be 41 30 e8 3d cf b9 41 be
       0.16226077 -0.14732334 0.11337329 -0.18918537
000320 a5 f6 5a 3d bd 4c 2f 3d 3b a4 38 3e 21 83 5d bc
       0.053457875 0.042797793 0.18031399 -0.013520033
000330 94 0b 34 be 86 9f 0c be 83 b2 00 3c d0 62 98 bd
       -0.17582542 -0.13732728 0.0078550605 -0.07440722
000340 10 7b 07 bb e2 72 0d 3d 52 89 f4 3d 66 35 e7 bd
       -0.0020672716 0.03453339 0.11940254 -0.11289482
000350 94 ac cf bd 24 fe f8 ba 78 a8 d1 bc ec 29 04 3d
       -0.101403385 -0.0018996638 -0.025593027 0.032266542
000360 59 6e 12 be 9b 2c 96 3d ef 7a 18 be c8 09 9d bd
       -0.14299907 0.073327266 -0.14890645 -0.07667881
000370 68 72 04 bd 5f c5 d8 bd 2e 0f 77 bd 9a 72 5f 3e
       -0.03233567 -0.105845205 -0.06031721 0.21821061
000380 0b 60 96 bd 74 a7 88 3d 25 d1 1b 3d 87 18 cc 3e
       -0.073425375 0.06672564 0.038041253 0.39862463
000390 43 70 a2 bd e6 96 1a be b8 85 f7 bd eb 7d fa 3c
       -0.079315685 -0.15096626 -0.12086052 0.03057762
0003a0 bd 70 10 be 0a a4 e5 3c d1 7f e3 bd f5 f7 8c 3d
       -0.14105506 0.028032321 -0.111083634 0.068832316
0003b0 ef 7a 81 bd ce a1 2c 3e 2c 53 04 3d 2f b5 06 be
       -0.06322276 0.16858599 0.03230588 -0.13155054
0003c0 5b c3 24 3e 81 fa e8 bc ef e0 8e 3d 5b 63 aa 3d
       0.16090147 -0.028439762 0.069764964 0.08319732
0003d0 dc 1c 56 be 3c a8 19 be b3 1f 55 3e 8e de 3c 3e
       -0.20909446 -0.15005583 0.20812874 0.18444273
0003e0 2e ce 4c 3e fa 0a 90 3c b0 49 de 3d 3a 69 2c be
       0.20000526 0.017583359 0.108538985 -0.16837016
0003f0 31 dc 67 bd bc a2 26 be 35 95 1e 3e 95 2e 40 3e
       -0.056606475 -0.16273016 0.15486605 0.1876777

gru.bias_ih_l1 f4 [192]
000000 b9 e2 1c be ba 74 47 bd e3 56 73 bd f4 59 e9 bd
       -0.15320863 -0.048695303 -0.059409034 -0.1139411
000010 d7 3b a5 be 50 35 bc 3c 49 74 b1 be a7 59 a4 be
       -0.32272217 0.02297464 -0.3465903 -0.3209965
000020 1f 38 ea bd c5 3e 66 be 10 7d 68 be da a1 b7 3c
       -0.114364855 -0.22484882 -0.22703958 0.022416044
000030 1d 2c f1 bd fb e1 bc 3d 25 16 91 be 7f ae ba bd
       -0.11775992 0.0922279 -0.28337207 -0.09115314
000040 bd 84 93 be fd 2f 98 be 36 c9 2f bd 85 57 63 3d
       -0.2881221 -0.29724112 -0.0429165 0.055503387
000050 8e 0e df bd 49 ab 90 be 61 ef c7 be 39 c1 a7 3d
       -0.10891448 -0.2825568 -0.3904982 0.08191151
000060 2a cd 6f be ac 62 b7 be d6 f4 31 3d 9c 4e 49 be
       -0.23418108 -0.35817468 0.043446384 -0.19658893
000070 66 ca ad 3b dd b9 48 bd 56 88 87 be 06 1b 8b be
       0.005303669 -0.049005378 -0.26471204 -0.27169055
000080 58 27 90 bd b2 4a 53 be 19 68 ce bd ad 2f 63 3d
       -0.07038754 -0.20633963 -0.10078449 0.05546539
000090 12 7b 02 bf 2d 73 91 bd dd 03 bc be 83 e7 bb bd
       -0.5096904 -0.07102046 -0.36721697 -0.09175017
0000a0 ff e7 01 be 64 9a 4d be 5d 1a c2 bc dc 19 9a be
       -0.12686156 -0.20078427 -0.023694212 -0.30097854
0000b0 0b 8e f3 bd b4 5c ff bd c2 61 9a be 72 05 96 3d
       -0.11892327 -0.124688536 -0.30152708 0.07325257
0000c0 ac d7 22 3d ad 6f 6a be 4d bf 2c be 9e 75 73 bd
       0.039756462 -0.22894163 -0.1686985 -0.05943834
0000d0 59 49 ca bd a9 a3 2c be 91 29 7b bd a6 4e 61 be
       -0.09877271 -0.16859306 -0.061318938 -0.22002658
0000e0 8c 65 51 be 66 d4 47 be f6 71 b5 3c d6 89 cf be
       -0.20448893 -0.19514617 0.022149067 -0.40534848
0000f0 5c 0a 26 be 4c ef 3a be 3d 39 95 be 4b c4 7a bd
       -0.1621489 -0.18255347 -0.29145232 -0.061222356
000100 9c 59 93 3d df 8a 38 be 67 af c5 bc 6a 29 2e bd
       0.07194826 -0.18021725 -0.02413149 -0.042519964
000110 69 80 2e 3e 0e e1 cf 3d 51 cd f2 3d 93 d0 99 3e
       0.17041172 0.10150348 0.11855567 0.30041942
000120 a5 86 ff 3d fc 80 29 be 60 a7 dc 3d 29 37 85 bd
       0.12476853 -0.1655311 0.10774112 -0.065046616
000130 b2 d4 bb bd 4b cb ba 3b 38 a3 14 3d cf 58 1e be
       -0.09171428 0.005700504 0.03628847 -0.15463565
000140 3a e6 4e 3e 39 5d f4 3d 92 f2 e5 3c 98 be 9c 3c
       0.20205012 0.11931843 0.028069768 0.019133851
000150 b6 59 fe 3d cd 09 e4 3d a8 63 c7 3c e9 62 d0 bc
       0.12419455 0.11134682 0.024339512 -0.025437789
000160 05 98 cc 3d 3d a2 c4 3d fc f6 2e 3e 42 cf de 3c
       0.09989933 0.09601257 0.17086405 0.027198438
000170 ab 7b e5 3d 9f 6c 87 bd 05 5b 7c 3d d0 97 1c 3e
       0.112052284 -0.06612515 0.06161024 0.15292287
000180 a5 35 69 be 99 f5 34 3e 61 5b 06 3e bc 59 63 bd
       -0.2277437 0.17671813 0.13120796 -0.0555055
000190 90 70 00 3e e9 7b 86 bb fe 13 58 3d 2e 34 5b 3e
       0.12542939 -0.0041041267 0.05275344 0.21406624
0001a0 b4 aa 4a 3e 09 20 49 3e 33 2f f4 3d 25 a5 34 bd
       0.1979168 0.19641127 0.11923065 -0.044102807
0001b0 1d 5d 03 3e 50 c0 7a 3b 4b 9a a8 bd ef c1 2a 3e
       0.12828489 0.00382616 -0.08232554 0.16675542
0001c0 72 64 37 3e df e1 b8 3d 16 f0 8c bc 14 ed 77 3e
       0.1790941 0.090274565 -0.017204326 0.24211532
0001d0 f7 ea 49 3e 6c b3 a5 bd 91 0e 2f bd 38 07 21 3e
       0.19718538 -0.08090863 -0.0427385 0.1572541
0001e0 9e 08 61 bd ab f0 39 3d fc 30 11 3d 31 58 13 3e
       -0.05493986 0.045395534 0.035447106 0.14389111
0001f0 fc 25 16 3e b0 1b 84 be 46 10 7b bc 81 eb 32 3c
       0.14662927 -0.25802374 -0.015323704 0.010920406
000200 8f 62 11 3d 8d 85 c6 bc 1f 1a 31 3d 8d 0c 56 bd
       0.035494383 -0.024233604 0.0432378 -0.052258063
000210 30 84 b4 bd 79 c6 a4 3d 56 c5 11 3d 3c fc dc 3c
       -0.08814275 0.08045668 0.035588585 0.026975743
000220 cc 4c c8 3b 78 3b 10 3d 48 5c ef bc 1b e9 3f 3d
       0.0061126705 0.035212964 -0.029218808 0.046853166
000230 67 2f 2c bb 22 33 18 bd 9d 93 bb 3d 3d 2d 9c bd
       -0.0026273371 -0.03715814 0.091590144 -0.07625816
000240 b9 88 a8 bc 98 ac 8b bc 75 5e eb 3a ee 0b a3 3d
       -0.020573007 -0.017050073 0.0017957228 0.0796126
000250 c5 fb 91 bb 95 ea 0c bc 7b 6b 24 3d 20 42 49 3d
       -0.004455062 -0.008600851 0.040141564 0.049135327
000260 3b a4 c2 3d 0d 67 88 bb a4 76 df bc 40 da 0a bc
       0.09503981 -0.0041626752 -0.027278252 -0.008474886
000270 e1 31 f8 3a 97 b8 0f 3d 07 62 bb 3c 11 c6 e2 bb
       0.0018935764 0.035088148 0.022873892 -0.006920584
000280 4d 4d ad 3d 88 0d 75 bb 49 17 48 bd a2 38 2b 3c
       0.084620096 -0.0037392098 -0.04885033 0.010450514
000290 87 d6 99 bd fd 95 3f 3d 71 1e 50 bd d1 0f cb bd
       -0.07511621 0.0467739 -0.05081028 -0.09915126
0002a0 34 19 2a bd 80 53 37 3e 2c 2a 01 bd 3b c1 07 bd
       -0.04152794 0.17902946 -0.03153436 -0.033143263
0002b0 a6 af 14 bd 2c ec 75 3c a4 fc a1 3d 49 e3 f2 bc
       -0.036300324 0.015009921 0.079095155 -0.029649394
0002c0 78 ff ad 3d 9a 79 c0 3c 0a d2 6a bd 36 54 04 be
       0.084959924 0.023495484 -0.057329215 -0.12922749
0002d0 48 98 e5 bc ee 1c c1 3c c5 e4 28 bd 52 69 90 3d
       -0.028026715 0.023573365 -0.041233797 0.07051338
0002e0 5c a4 86 bd 16 7d 9e bc ad 87 c7 bd c2 ac 64 3d
       -0.06574318 -0.019346755 -0.09742675 0.055828817
0002f0 d9 db 31 3d 0e ac 36 3d af 50 2d bd ba bf a4 bd
       0.043422554 0.044597678 -0.042313274 -0.080443814

gru.bias_hh_l1 f4 [192]
000000 a4 13 62 be 41 87 bc bc 3c 6f f5 3c 52 0f 9a bd
       -0.22077805 -0.023013713 0.029960267 -0.07522453
000010 34 ff c3 be 70 5d 46 be f8 83 20 be 80 0e 62 be
       -0.38280642 -0.19371581 -0.15675342 -0.22075844
000020 89 bc 8a be d8 c8 46 be d0 91 f8 bd b7 f1 04 be
       -0.27096966 -0.19412553 -0.121371865 -0.12982832
000030 93 b2 5c bd 7a dc ef 3d 52 bc 81 be 87 33 d3 bd
       -0.05388124 0.117119744 -0.2533899 -0.103125624
000040 f3 4b 66 be a8 e9 4b be 08 fa 9e bd 42 8c 2a 3b
       -0.2248991 -0.19913352 -0.077625334 0.0026023542
000050 3d 60 c1 bd 40 f2 51 be 06 04 1a bf 8e 4d 38 bd
       -0.09442184 -0.20502567 -0.6016239 -0.044995837
000060 b9 14 91 be d2 92 40 be 51 cf 88 bd bc 43 69 be
       -0.28336123 -0.18806008 -0.066801675 -0.22779745
000070 b1 54 2b be 32 01 0c be 47 c5 1d be 12 26 0a be
       -0.16731526 -0.13672331 -0.15407287 -0.13491085
000080 46 32 c5 bc 5a 17 cb be f7 cf 1c be 1c 7f af 3b
       -0.024071824 -0.39666253 -0.15313707 0.005355729
000090 cc eb d0 be a1 3c 19 be bd d5 02 bf 0e c0 fc bd
       -0.408049 -0.14964534 -0.5110739 -0.12341319
0000a0 ac f1 57 be 0e 20 2c be b8 81 34 be 00 9a 8f be
       -0.21088284 -0.16809103 -0.17627609 -0.2804718
0000b0 f6 06 89 bd 69 9c 44 be 27 68 ba be da 29 30 3d
       -0.06690781 -0.1920029 -0.36407587 0.043008663
0000c0 29 82 12 be 29 63 02 be ea d6 8a bc a8 7c 91 bc
       -0.14307465 -0.12733139 -0.016948182 -0.017759636
0000d0 42 40 68 be a6 97 33 bc 3b 8d 18 bd 10 9b 85 bd
       -0.22680762 -0.010961449 -0.037244063 -0.065237164
0000e0 d1 ef 95 be f5 67 11 be cd ac c2 3d d1 a8 b7 be
       -0.29284528 -0.14199813 0.095056154 -0.35870984
0000f0 f6 68 3d be ed c0 3e be 54 e7 8c be 32 8e a0 bd
       -0.1849707 -0.18628283 -0.2752024 -0.078396216
000100 fb 1f b1 bd 86 e5 fa bc 36 e3 9a bc 0f 74 5b bd
       -0.08648678 -0.030627023 -0.01890717 -0.05357748
000110 bd 82 83 3d 67 ad 8f 3d 49 12 19 3d 4b 61 18 3e
       0.06421421 0.07015496 0.037370954 0.14880864
000120 39 8f 85 3d ec 83 5a bd b3 d0 4c 3e 7e 68 c6 bd
       0.06521458 -0.053348467 0.20001487 -0.09687899
000130 86 5e 9e bd 6d 41 e2 3d cf 04 cb bb 4c 58 bc bd
       -0.07732873 0.11047635 -0.0061956416 -0.09196529
000140 c6 64 c2 3d 2d 11 73 3d e3 4d de 3c c1 4f 94 3d
       0.09491877 0.059342552 0.027136749 0.07241774
000150 2c 74 0a 3e c2 fe bb 3d 32 eb 7c 3e 28 35 03 3e
       0.13520879 0.091794506 0.24699095 0.12813246
000160 d5 dc aa 3d 82 a2 4f 3e f1 51 30 3e 26 67 25 bd
       0.083429016 0.20276836 0.17218758 -0.040381573
000170 43 1d 12 3c 8d f3 8e ba 17 08 5c 3d 19 95 03 3e
       0.008918109 -0.0010906324 0.053718653 0.12849845
000180 d1 bc 2c bc 15 32 3f 3e 5b 6e 00 3d a1 0c 13 3d
       -0.010543064 0.18671449 0.031355243 0.035900716
000190 46 a8 15 3e 14 c5 2f 3e 99 70 99 3d f9 15 f7 3d
       0.14614972 0.17165023 0.074921794 0.12064738
0001a0 16 56 c2 3d 16 69 69 3e 80 e2 36 3d 8b a6 ba bd
       0.09489076 0.22793993 0.0446496 -0.09113797
0001b0 28 65 3b 3e e2 93 60 bc 29 a7 c2 bd 68 4d 59 3e
       0.18300307 -0.013707133 -0.095045395 0.21220934
0001c0 2b 98 62 3e 23 c1 2f 3d 08 0f 49 3d 8f 71 2f 3d
       0.2212836 0.0429088 0.0490866 0.042832907
0001d0 43 2d fb 3d c6 2d 1e 3d 1d 68 fa bc a6 1f 62 3e
       0.12264492 0.03861787 -0.030567223 0.22082385
0001e0 7b f4 84 3d 11 83 99 ba 83 93 03 3e e0 d8 03 bd
       0.064919434 -0.0011712034 0.1284924 -0.03218925
0001f0 ba e9 5b 3e 70 98 71 be 7a 85 86 3d 1b b4 26 3d
       0.21475878 -0.23593307 0.065684274 0.040699106
000200 9e e7 38 3e 37 1e 86 bd 48 f4 31 be 2f 13 13 3e
       0.18057105 -0.06548732 -0.17378342 0.14362787
000210 8a 64 cf 3d 0a 6e ae bc 69 57 01 3e a0 6b a0 3c
       0.10126598 -0.021292705 0.12631 0.01958257
000220 a3 e6 54 3d e1 e8 07 be d1 64 9a bd e1 e7 a4 bd
       0.051977765 -0.1327243 -0.075387605 -0.0805204
000230 60 6d aa bd e5 c1 0d 3e db b0 8f 3c 3f b0 56 3c
       -0.08321643 0.13843496 0.017540386 0.013103544
000240 bb e9 14 bc 14 d9 97 3d ae 65 21 be 0b 53 12 3d
       -0.009088929 0.07414451 -0.15761444 0.035723727
000250 32 15 b1 3d 53 00 11 3e a0 91 94 bb bb 89 1e be
       0.08646621 0.1416028 -0.0045339614 -0.15482228
000260 7d 58 59 3d fc cd 4b 3d 4e 85 0f 3e 28 e9 1d be
       0.053062905 0.04975699 0.14015695 -0.15420973
000270 7e fe 0e be e4 0a 0a 3e fe e0 ea 3d 71 90 14 3d
       -0.13964269 0.13480717 0.11468695 0.036270563
000280 51 06 77 bd 79 6c 9b 3d 8f d2 c7 3d a9 fa 9c bc
       -0.06030876 0.07589049 0.09756958 -0.019162493
000290 79 97 10 bd 57 e1 4b 3d 0c da 23 3d 4c 2e d8 bc
       -0.035300706 0.049775448 0.040002868 -0.026389264
0002a0 ac 90 8c 3c c5 9d c1 3d 14 13 61 3d a7 b5 49 be
       0.017158829 0.0945392 0.054949835 -0.19698201
0002b0 9f d8 38 3c 00 1d 23 bd 5b 28 a4 3d f2 5b d4 3d
       0.011282115 -0.03982258 0.0801551 0.103691
0002c0 8a e8 25 bd 79 c1 1d bb 99 e2 74 3d 1f 68 be bd
       -0.04050497 -0.0024071618 0.059786413 -0.09297203
0002d0 61 e7 e1 bc 0b cd 5a 3d 34 35 28 3e 70 f5 b3 3c
       -0.02757615 0.0534182 0.16426545 0.02196762
0002e0 f6 b7 6f bd f2 50 09 3e 53 ce 04 be 6f b1 05 bc
       -0.05852505 0.13409784 -0.12969331 -0.008159979
0002f0 a4 f5 69 bd 49 8e 91 bd 17 df 94 3c 09 42 7c bd
       -0.057119027 -0.07107217 0.018172784 -0.061586414
